…
model.safetensors:   0%|          | 0.00/2.44G [00:00<?, ?B/s]"],"application/vnd.jupyter.widget-view+json":{"version_major":2,"version_minor":0,"model_id":"5441af30ca404cd989d8b4bc3e634ba6"}},"metadata":{}},{"output_type":"display_data","data":{"text/plain":["generation_config.json:   0%|          | 0.00/261 [00:00<?, ?B/s]"],"application/vnd.jupyter.widget-view+json":{"version_major":2,"version_minor":0,"model_id":"b24510c3b938490bb897414c6efd015a"}},"metadata":{}},{"output_type":"execute_result","data":{"text/plain":["MBartForConditionalGeneration(\n","  (model): MBartModel(\n","    (shared): Embedding(250054, 1024, padding_idx=1)\n","    (encoder): MBartEncoder(\n","      (embed_tokens): Embedding(250054, 1024, padding_idx=1)\n","      (embed_positions): MBartLearnedPositionalEmbedding(1026, 1024)\n","      (layers): ModuleList(\n","        (0-11): 12 x MBartEncoderLayer(\n","          (self_attn): MBartAttention(\n","            (k_proj): Linear(in_features=1024, out_features=1024, bias=True)\n","            (v_proj): Linear(in_features=1024, out_features=1024, bias=True)\n","            (q_proj): Linear(in_features=1024, out_features=1024, bias=True)\n","            (out_proj): Linear(in_features=1024, out_features=1024, bias=True)\n","          )\n","          (self_attn_layer_norm): LayerNorm((1024,), eps=1e-05, elementwise_affine=True)\n","          (activation_fn): ReLU()\n","          (fc1): Linear(in_features=1024, out_features=4096, bias=True)\n","          (fc2): Linear(in_features=4096, out_features=1024, bias=True)\n","          (final_layer_norm): LayerNorm((1024,), eps=1e-05, elementwise_affine=True)\n","        )\n","      )\n","      (layernorm_embedding): LayerNorm((1024,), eps=1e-05, elementwise_affine=True)\n","      (layer_norm): LayerNorm((1024,), eps=1e-05, elementwise_affine=True)\n","    )\n","    (decoder): MBartDecoder(\n","      (embed_tokens): Embedding(250054, 1024, padding_idx=1)\n","      (embed_positions): MBartLearnedPositionalEmbedding(1026, 1024)\n","      (layers): ModuleList(\n","        (0-11): 12 x MBartDecoderLayer(\n","          (self_attn): MBartAttention(\n","            (k_proj): Linear(in_features=1024, out_features=1024, bias=True)\n","            (v_proj): Linear(in_features=1024, out_features=1024, bias=True)\n","            (q_proj): Linear(in_features=1024, out_features=1024, bias=True)\n","            (out_proj): Linear(in_features=1024, out_features=1024, bias=True)\n","          )\n","          (activation_fn): ReLU()\n","          (self_attn_layer_norm): LayerNorm((1024,), eps=1e-05, elementwise_affine=True)\n","          (encoder_attn): MBartAttention(\n","            (k_proj): Linear(in_features=1024, out_features=1024, bias=True)\n","            (v_proj): Linear(in_features=1024, out_features=1024, bias=True)\n","            (q_proj): Linear(in_features=1024, out_features=1024, bias=True)\n","            (out_proj): Linear(in_features=1024, out_features=1024, bias=True)\n","          )\n","          (encoder_attn_layer_norm): LayerNorm((1024,), eps=1e-05, elementwise_affine=True)\n","          (fc1): Linear(in_features=1024, out_features=4096, bias=True)\n","          (fc2): Linear(in_features=4096, out_features=1024, bias=True)\n","          (final_layer_norm): LayerNorm((1024,), eps=1e-05, elementwise_affine=True)\n","        )\n","      )\n","      (layernorm_embedding): LayerNorm((1024,), eps=1e-05, elementwise_affine=True)\n","      (layer_norm): LayerNorm((1024,), eps=1e-05, elementwise_affine=True)\n","    )\n","  )\n","  (lm_head): Linear(in_features=1024, out_features=250054, bias=False)\n",")"]},"metadata":{},"execution_count":16}]},{"cell_type":"code","source":["##Configuración para el entrenamiento\n","\n","from transformers import TrainingArguments\n","\n","training_args = TrainingArguments(\n","    output_dir=\"./results\",              # dónde guardar modelo\n","    per_device_train_batch_size=1,       # batch pequeño (GPU s
…
