…
}},"outputId":"587b09d7-a652-49a8-91bc-62777a48988b"},"execution_count":10,"outputs":[{"output_type":"execute_result","data":{"text/plain":["M2M100ForConditionalGeneration(\n","  (model): M2M100Model(\n","    (shared): M2M100ScaledWordEmbedding(256206, 1024, padding_idx=1)\n","    (encoder): M2M100Encoder(\n","      (embed_tokens): M2M100ScaledWordEmbedding(256206, 1024, padding_idx=1)\n","      (embed_positions): M2M100SinusoidalPositionalEmbedding()\n","      (layers): ModuleList(\n","        (0-11): 12 x M2M100EncoderLayer(\n","          (self_attn): M2M100Attention(\n","            (k_proj): Linear(in_features=1024, out_features=1024, bias=True)\n","            (v_proj): Linear(in_features=1024, out_features=1024, bias=True)\n","            (q_proj): Linear(in_features=1024, out_features=1024, bias=True)\n","            (out_proj): Linear(in_features=1024, out_features=1024, bias=True)\n","          )\n","          (self_attn_layer_norm): LayerNorm((1024,), eps=1e-05, elementwise_affine=True)\n","          (activation_fn): ReLU()\n","          (fc1): Linear(in_features=1024, out_features=4096, bias=True)\n","          (fc2): Linear(in_features=4096, out_features=1024, bias=True)\n","          (final_layer_norm): LayerNorm((1024,), eps=1e-05, elementwise_affine=True)\n","        )\n","      )\n","      (layer_norm): LayerNorm((1024,), eps=1e-05, elementwise_affine=True)\n","    )\n","    (decoder): M2M100Decoder(\n","      (embed_tokens): M2M100ScaledWordEmbedding(256206, 1024, padding_idx=1)\n","      (embed_positions): M2M100SinusoidalPositionalEmbedding()\n","      (layers): ModuleList(\n","        (0-11): 12 x M2M100DecoderLayer(\n","          (self_attn): M2M100Attention(\n","            (k_proj): Linear(in_features=1024, out_features=1024, bias=True)\n","            (v_proj): Linear(in_features=1024, out_features=1024, bias=True)\n","            (q_proj): Linear(in_features=1024, out_features=1024, bias=True)\n","            (out_proj): Linear(in_features=1024, out_features=1024, bias=True)\n","          )\n","          (activation_fn): ReLU()\n","          (self_attn_layer_norm): LayerNorm((1024,), eps=1e-05, elementwise_affine=True)\n","          (encoder_attn): M2M100Attention(\n","            (k_proj): Linear(in_features=1024, out_features=1024, bias=True)\n","            (v_proj): Linear(in_features=1024, out_features=1024, bias=True)\n","            (q_proj): Linear(in_features=1024, out_features=1024, bias=True)\n","            (out_proj): Linear(in_features=1024, out_features=1024, bias=True)\n","          )\n","          (encoder_attn_layer_norm): LayerNorm((1024,), eps=1e-05, elementwise_affine=True)\n","          (fc1): Linear(in_features=1024, out_features=4096, bias=True)\n","          (fc2): Linear(in_features=4096, out_features=1024, bias=True)\n","          (final_layer_norm): LayerNorm((1024,), eps=1e-05, elementwise_affine=True)\n","        )\n","      )\n","      (layer_norm): LayerNorm((1024,), eps=1e-05, elementwise_affine=True)\n","    )\n","  )\n","  (lm_head): Linear(in_features=1024, out_features=256206, bias=False)\n",")"]},"metadata":{},"execution_count":10}]},{"cell_type":"code","source":["#Preparar el trainning\n","\n","from transformers import TrainingArguments, Trainer\n","\n","training_args = TrainingArguments(\n","    output_dir=\"./results\",\n","    per_device_train_batch_size=1,\n","    num_train_epochs=6,\n","    learning_rate=3e-5,\n","    save_s
…
