…
y_data","data":{"text/plain":["pytorch_model.bin:   0%|          | 0.00/1.20G [00:00<?, ?B/s]"],"application/vnd.jupyter.widget-view+json":{"version_major":2,"version_minor":0,"model_id":"d47f6af182c34da7841f4945c3647f62"}},"metadata":{}},{"output_type":"display_data","data":{"text/plain":["generation_config.json:   0%|          | 0.00/147 [00:00<?, ?B/s]"],"application/vnd.jupyter.widget-view+json":{"version_major":2,"version_minor":0,"model_id":"bb28d92644b047cb949fb0de72b3791e"}},"metadata":{}},{"output_type":"execute_result","data":{"text/plain":["MT5ForConditionalGeneration(\n","  (shared): Embedding(250112, 512)\n","  (encoder): MT5Stack(\n","    (embed_tokens): Embedding(250112, 512)\n","    (block): ModuleList(\n","      (0): MT5Block(\n","        (layer): ModuleList(\n","          (0): MT5LayerSelfAttention(\n","            (SelfAttention): MT5Attention(\n","              (q): Linear(in_features=512, out_features=384, bias=False)\n","              (k): Linear(in_features=512, out_features=384, bias=False)\n","              (v): Linear(in_features=512, out_features=384, bias=False)\n","              (o): Linear(in_features=384, out_features=512, bias=False)\n","              (relative_attention_bias): Embedding(32, 6)\n","            )\n","            (layer_norm): MT5LayerNorm()\n","            (dropout): Dropout(p=0.1, inplace=False)\n","          )\n","          (1): MT5LayerFF(\n","            (DenseReluDense): MT5DenseGatedActDense(\n","              (wi_0): Linear(in_features=512, out_features=1024, bias=False)\n","              (wi_1): Linear(in_features=512, out_features=1024, bias=False)\n","              (wo): Linear(in_features=1024, out_features=512, bias=False)\n","              (dropout): Dropout(p=0.1, inplace=False)\n","              (act): NewGELUActivation()\n","            )\n","            (layer_norm): MT5LayerNorm()\n","            (dropout): Dropout(p=0.1, inplace=False)\n","          )\n","        )\n","      )\n","      (1-7): 7 x MT5Block(\n","        (layer): ModuleList(\n","          (0): MT5LayerSelfAttention(\n","            (SelfAttention): MT5Attention(\n","              (q): Linear(in_features=512, out_features=384, bias=False)\n","              (k): Linear(in_features=512, out_features=384, bias=False)\n","              (v): Linear(in_features=512, out_features=384, bias=False)\n","              (o): Linear(in_features=384, out_features=512, bias=False)\n","            )\n","            (layer_norm): MT5LayerNorm()\n","            (dropout): Dropout(p=0.1, inplace=False)\n","          )\n","          (1): MT5LayerFF(\n","            (DenseReluDense): MT5DenseGatedActDense(\n","              (wi_0): Linear(in_features=512, out_features=1024, bias=False)\n","              (wi_1): Linear(in_features=512, out_features=1024, bias=False)\n","              (wo): Linear(in_features=1024, out_features=512, bias=False)\n","              (dropout): Dropout(p=0.1, inplace=False)\n","              (act): NewGELUActivation()\n","            )\n","            (layer_norm): MT5LayerNorm()\n","            (dropout): Dropout(p=0.1, inplace=False)\n","          )\n","        )\n","      )\n","    )\n","    (final_layer_norm): MT5LayerNorm()\n","    (dropout): Dropout(p=0.1, inplace=False)\n","  )\n","  (decoder): MT5Stack(\n","    (embed_tokens): Embedding(250112, 512)\n","    (block): ModuleList(\n","      (0): MT5Block(\n","        (layer): ModuleList(\n","          (0): MT5LayerSelfAttention(\n","            (SelfAttention): MT5Attention(\n","              (q): Linear(in_features=512, out_features=384, bias=False)\n","              (k): Linear(in_features=512, out_features=384, bias=False)\n","              (v): Linear(in_features=512, out_features=384, bias=False)\n","              (o): Linear(in_features=384, out_features=512, bias=False)\n","              (relative_attention_bias): Embedding(32, 6)\n","            )\n","            (layer_norm): MT5LayerNorm()\n","            (dropout): Dropout(p=0.1, inplace=False)\n","          )\n","          (1): MT5LayerCrossAttention(\n","            (EncDecAttention): MT5Attention(\n","              (q): Linear(in_features=512, out_features=384, bias=False)\n","              (k): Linear(in_features=512, out_features=384, bias=False)\n","              (v): Linear(in_features=512, out_features=384, bias=False)\n","              (o): Linear(in_features=384, out_features=512, bias=False)\n","            )\n","            (layer_norm): MT5LayerNorm()\n","            (dropout): Dropout(p=0.1, inplace=False)\n","          )\n","          (2): MT5LayerFF(\n","            (DenseReluDense): MT5DenseGatedActDense(\n","              (wi_0): Linear(in_features=512, out_features=1024, bias=False)\n","              (wi_1): Linear(in_features=512, out_features=1024, bias=False)\n","              (wo): Linear(in_features=1024, out_features=512, bias=False)\n","              (dropout): Dropout(p=0.1, inplace=False)\n","              (act): NewGELUActivation()\n","            )\n","            (layer_norm): MT5LayerNorm()\n","            (dropout): Dropout(p=0.1, inplace=False)\n","          )\n","        )\n","      )\n","      (1-7): 7 x MT5Block(\n","        (layer): ModuleList(\n","          (0): MT5LayerSelfAttention(\n","            (SelfAttention): MT5Attention(\n","              (q): Linear(in_features=512, out_features=384, bias=False)\n","              (k): Linear(in_features=512, out_features=384, bias=False)\n","              (v): Linear(in_features=512, out_features=384, bias=False)\n","              (o): Linear(in_features=384, out_features=512, bias=False)\n","            )\n","            (layer_norm): MT5LayerNorm()\n","            (dropout): Dropout(p=0.1, inplace=False)\n","          )\n","          (1): MT5LayerCrossAttention(\n","            (EncDecAttention): MT5Attention(\n","              (q): Linear(in_features=512, out_features=384, bias=False)\n","              (k): Linear(in_features=512, out_features=384, bias=False)\n","              (v): Linear(in_features=512, out_features=384, bias=False)\n","              (o): Linear(in_features=384, out_features=512, bias=False)\n","            )\n","            (layer_norm): MT5LayerNorm()\n","            (dropout): Dropout(p=0.1, inplace=False)\n","          )\n","          (2): MT5LayerFF(\n","            (DenseReluDense): MT5DenseGatedActDense(\n","              (wi_0): Linear(in_features=512, out_features=1024, bias=False)\n","              (wi_1): Linear(in_features=512, out_features=1024, bias=False)\n","              (wo): Linear(in_features=1024, out_features=512, bias=False)\n","              (dropout): Dropout(p=0.1, inplace=False)\n","              (act): NewGELUActivation()\n","            )\n","            (layer_norm): MT5LayerNorm()\n","            (dropout): Dropout(p=0.1, inplace=False)\n","          )\n","        )\n","      )\n","    )\n","    (final_layer_norm): MT5LayerNorm()\n","    (dropout): Dropout(p=0.1, inplace=False)\n","  )\n","  (lm_head): Linear(in_features=512, out_features=250112, bias=False)\n",")"]},"metadata":{},"execution_count":14}]},{"cell_type":"code","source":["##Parámetros para entrenamiento\n","\n","from transformers import TrainingArguments, Trainer\n","\n","training_args = TrainingArguments(\n","    output_dir=\"./results_mt5\",\n","    per_device_train_batch_size=1,\n","    num_train_epochs=6,\n","    learning_rate=3e-5,\n"
…
