…
torch_model.bin:   0%|          | 0.00/2.46G [00:00<?, ?B/s]"],"application/vnd.jupyter.widget-view+json":{"version_major":2,"version_minor":0,"model_id":"d85a1ba7c89a48d5a9f9970c73849949"}},"metadata":{}},{"output_type":"display_data","data":{"text/plain":["generation_config.json:   0%|          | 0.00/189 [00:00<?, ?B/s]"],"application/vnd.jupyter.widget-view+json":{"version_major":2,"version_minor":0,"model_id":"c554207888404debbdc0ea25314c6b60"}},"metadata":{}},{"output_type":"execute_result","data":{"text/plain":["M2M100ForConditionalGeneration(\n","  (model): M2M100Model(\n","    (shared): Embedding(256206, 1024, padding_idx=1)\n","    (encoder): M2M100Encoder(\n","      (embed_tokens): Embedding(256206, 1024, padding_idx=1)\n","      (embed_positions): M2M100SinusoidalPositionalEmbedding()\n","      (layers): ModuleList(\n","        (0-11): 12 x M2M100EncoderLayer(\n","          (self_attn): M2M100Attention(\n","            (k_proj): Linear(in_features=1024, out_features=1024, bias=True)\n","            (v_proj): Linear(in_features=1024, out_features=1024, bias=True)\n","            (q_proj): Linear(in_features=1024, out_features=1024, bias=True)\n","            (out_proj): Linear(in_features=1024, out_features=1024, bias=True)\n","          )\n","          (self_attn_layer_norm): LayerNorm((1024,), eps=1e-05, elementwise_affine=True)\n","          (activation_fn): ReLU()\n","          (fc1): Linear(in_features=1024, out_features=4096, bias=True)\n","          (fc2): Linear(in_features=4096, out_features=1024, bias=True)\n","          (final_layer_norm): LayerNorm((1024,), eps=1e-05, elementwise_affine=True)\n","        )\n","      )\n","      (layer_norm): LayerNorm((1024,), eps=1e-05, elementwise_affine=True)\n","    )\n","    (decoder): M2M100Decoder(\n","      (embed_tokens): Embedding(256206, 1024, padding_idx=1)\n","      (embed_positions): M2M100SinusoidalPositionalEmbedding()\n","      (layers): ModuleList(\n","        (0-11): 12 x M2M100DecoderLayer(\n","          (self_attn): M2M100Attention(\n","            (k_proj): Linear(in_features=1024, out_features=1024, bias=True)\n","            (v_proj): Linear(in_features=1024, out_features=1024, bias=True)\n","            (q_proj): Linear(in_features=1024, out_features=1024, bias=True)\n","            (out_proj): Linear(in_features=1024, out_features=1024, bias=True)\n","          )\n","          (activation_fn): ReLU()\n","          (self_attn_layer_norm): LayerNorm((1024,), eps=1e-05, elementwise_affine=True)\n","          (encoder_attn): M2M100Attention(\n","            (k_proj): Linear(in_features=1024, out_features=1024, bias=True)\n","            (v_proj): Linear(in_features=1024, out_features=1024, bias=True)\n","            (q_proj): Linear(in_features=1024, out_features=1024, bias=True)\n","            (out_proj): Linear(in_features=1024, out_features=1024, bias=True)\n","          )\n","          (encoder_attn_layer_norm): LayerNorm((1024,), eps=1e-05, elementwise_affine=True)\n","          (fc1): Linear(in_features=1024, out_features=4096, bias=True)\n","          (fc2): Linear(in_features=4096, out_features=1024, bias=True)\n","          (final_layer_norm): LayerNorm((1024,), eps=1e-05, elementwise_affine=True)\n","        )\n","      )\n","      (layer_norm): LayerNorm((1024,), eps=1e-05, elementwise_affine=True)\n","    )\n","  )\n","  (lm_head): Linear(in_features=1024, out_features=256206, bias=False)\n",")"]},"metadata":{},"execution_count":14}]},{"cell_type":"code","source":["#Parámetros para el entrenamiento\n","from transformers import TrainingArguments\n","\n","training_args = TrainingArguments(\n","    output_dir=\"./results_nllb\",\n","    per_device_train_batch_size=1,\n","    num_train_epochs=6,\n","    learning_rate=3e-5,\n","    save
…
